_________________________________________________________________
Layer (type)                 Output Shape              Param #   
=================================================================
flatten_1 (Flatten)          (None, 4)                 0         
_________________________________________________________________
dense_1 (Dense)              (None, 16)                80        
_________________________________________________________________
activation_1 (Activation)    (None, 16)                0         
_________________________________________________________________
dense_2 (Dense)              (None, 16)                272       
_________________________________________________________________
activation_2 (Activation)    (None, 16)                0         
_________________________________________________________________
dense_3 (Dense)              (None, 16)                272       
_________________________________________________________________
activation_3 (Activation)    (None, 16)                0         
_________________________________________________________________
dense_4 (Dense)              (None, 2)                 34        
_________________________________________________________________
activation_4 (Activation)    (None, 2)                 0         
=================================================================
Total params: 658
Trainable params: 658
Non-trainable params: 0
_________________________________________________________________
None
Training for 100000 steps ...
    25/100000: episode: 1, duration: 0.896s, episode steps: 25, steps per second: 28, episode reward: 25.000, mean reward: 1.000 [1.000, 1.000], mean action: 0.480 [0.000, 1.000], mean observation: -0.118 [-0.840, 0.355], mean_best_reward: --
…
