_________________________________________________________________
Layer (type)                 Output Shape              Param #   
=================================================================
flatten_1 (Flatten)          (None, 3)                 0         
_________________________________________________________________
dense_1 (Dense)              (None, 16)                64        
_________________________________________________________________
activation_1 (Activation)    (None, 16)                0         
_________________________________________________________________
dense_2 (Dense)              (None, 16)                272       
_________________________________________________________________
activation_2 (Activation)    (None, 16)                0         
_________________________________________________________________
dense_3 (Dense)              (None, 16)                272       
_________________________________________________________________
activation_3 (Activation)    (None, 16)                0         
_________________________________________________________________
dense_4 (Dense)              (None, 1L)                17        
_________________________________________________________________
activation_4 (Activation)    (None, 1L)                0         
=================================================================
Total params: 625
Trainable params: 625
Non-trainable params: 0
…
Layer (type)                     Output Shape          Param #     Connected to                     
====================================================================================================
observation_input (InputLayer)   (None, 1, 3L)         0                                            
____________________________________________________________________________________________________
action_input (InputLayer)        (None, 1L)            0                                            
____________________________________________________________________________________________________
flatten_2 (Flatten)              (None, 3)             0           observation_input[0][0]          
____________________________________________________________________________________________________
merge_1 (Merge)                  (None, 4)             0           action_input[0][0]               
                                                                   flatten_2[0][0]                  
____________________________________________________________________________________________________
dense_5 (Dense)                  (None, 32)            160         merge_1[0][0]                    
____________________________________________________________________________________________________
activation_5 (Activation)        (None, 32)            0           dense_5[0][0]                    
____________________________________________________________________________________________________
dense_6 (Dense)                  (None, 32)            1056        activation_5[0][0]               
____________________________________________________________________________________________________
activation_6 (Activation)        (None, 32)            0           dense_6[0][0]                    
____________________________________________________________________________________________________
dense_7 (Dense)                  (None, 32)            1056        activation_6[0][0]               
____________________________________________________________________________________________________
activation_7 (Activation)        (None, 32)            0           dense_7[0][0]                    
____________________________________________________________________________________________________
dense_8 (Dense)                  (None, 1)             33          activation_7[0][0]               
____________________________________________________________________________________________________
activation_8 (Activation)        (None, 1)             0           dense_8[0][0]                    
====================================================================================================
Total params: 2,305
Trainable params: 2,305
Non-trainable params: 0
____________________________________________________________________________________________________
None
Training for 5000 steps ...
Interval 1 (0 steps performed)
    1/10000
…
