_________________________________________________________________
Layer (type)                 Output Shape              Param #   
=================================================================
flatten_1 (Flatten)          (None, 4)                 0         
_________________________________________________________________
dense_1 (Dense)              (None, 16)                80        
_________________________________________________________________
activation_1 (Activation)    (None, 16)                0         
_________________________________________________________________
dense_2 (Dense)              (None, 16)                272       
_________________________________________________________________
activation_2 (Activation)    (None, 16)                0         
_________________________________________________________________
dense_3 (Dense)              (None, 16)                272       
_________________________________________________________________
activation_3 (Activation)    (None, 16)                0         
_________________________________________________________________
dense_4 (Dense)              (None, 2)                 34        
=================================================================
Total params: 658
Trainable params: 658
Non-trainable params: 0
_________________________________________________________________
None
Training for 100000 steps ...
    18/100000: episode: 1, duration: 0.917s, episode steps: 18, steps per second: 20, episode reward: 18.000, mean reward: 1.000 [1.000, 1.000], mean action: 0.389 [0.000, 1.000], mean observation: 0.062 [-1.029, 1.588], loss: --, mean_absolute_error: --, mean_q: --
…
